baseline/data/checkpoints/raw_e_64_h_64_lr_0.001_max_len_10_k_3_vocab_25_seed_114_btch_size_1024.pt (torch_old, 346264 bytes, 33 tensors)

embedding f4 [25, 64]
0.1781171 -0.17503731 0.110409394 -0.17412911 -0.033921428 0.11849405 -0.08982331 -0.12986483
-0.06141262 0.11890085 0.0077349655 -0.08030938 -0.0023932257 -0.110482894 0.029242856 -0.17459838
0.072444774 -0.03250592 0.0374568 -0.06311831 -0.04516306 -0.1180149 0.013674216 0.32514414
-0.017913902 0.11226716 -0.053319275 -0.13559547 -0.05258059 -0.004539243 -0.17086032 -0.07608691
-0.009430456 0.09103236 -0.098239094 -0.075159445 -0.058722805 0.05692844 0.041152235 -0.18021709
0.03988247 0.0130934315 0.26084337 0.07570381 0.07464522 0.057150114 0.0016892983 -0.29354656
-0.15488364 0.097583555 0.097836636 -0.11034304 0.08486324 -0.13768944 -0.073840015 -0.14133039
-0.083683744 -0.021506924 -0.02093368 -0.112874016 0.17440814 0.09938159 0.023557436 0.016675154
0.07914272 0.035291184 0.0651843 -0.025592562 -0.12879199 -0.12761463 0.06669155 -0.033341866
0.069825284 -0.06512707 -0.026786186 -0.061993495 -0.019554857 0.07278333 0.049403567 0.063021176
0.07356168 -0.054412678 -0.007920536 -0.023096573 0.12148176 -0.1160667 0.031458706 -0.098880254
0.004846636 0.0896725 -0.17773154 -0.13989507 0.01643823 -0.21354324 -0.0023610417 0.060324144
-0.120984636 -0.072684556 -0.04935419 0.07035032 0.000393554 0.051770415 0.13823307 -0.0033554444
-0.0100762015 -0.06953787 -0.113389276 0.11044825 -0.11402929 0.12561107 -0.026528904 -0.07785876
0.03333812 -0.04293872 0.035179175 -0.09872733 0.052249987 -0.048211932 0.021673812 -0.23140167
-0.018231964 -0.13967143 0.115652956 -0.11051941 -0.08541699 0.041898325 0.0040835002 0.11668702
-0.06329316 -0.02773022 0.028276004 -0.09862416 -0.042989984 -0.093255386 -0.0869111 -0.03976288
-0.08536975 -0.016686171 -0.091693826 0.32905075 -0.067950405 0.0042659505 -0.032182716 -0.082493186
-0.04115614 -0.051099554 -0.008920498 0.21680036 -0.036470655 0.005800702 0.001790571 0.1072105
0.025816156 0.12380103 -0.12046512 0.045614522 0.013380672 0.06341793 0.07496961 0.0011818522
0.113384314 -0.016522836 -0.16147846 0.15137802 0.08861371 -0.045076057 0.18375619 0.27546316
-0.071970895 0.11016968 0.04720923 0.14120889 -0.0771798 0.03982622 0.021536455 -0.12069845
0.02818429 0.14700063 -0.027419098 0.0003418594 0.16943088 -0.024206148 -0.030086128 -0.16576612
-0.13658486 -0.21004392 -0.03472931 -0.1419448 0.02468439 -0.13352823 -0.031941015 0.10752725
0.03774912 -0.17004631 0.12853968 0.011876357 0.03626731 -0.0071265874 -0.10563957 -0.04968915
0.10716891 -0.03799396 -0.05877342 -0.04992111 0.029364718 0.13284884 0.094429955 -0.07477003
0.12845206 -0.011828413 0.069565885 0.060060333 0.0881632 -0.12656495 0.10392762 -0.12566106
0.016317673 0.11682041 0.06970768 -0.036291193 0.06837221 0.042946335 0.0388932 0.08461274
-0.12333703 0.11074279 -0.16420335 -0.075136304 0.13326585 0.1135534 -0.14785379 -0.064575404
0.054630682 -0.04941305 -0.004435052 0.013895061 -0.016584892 0.047306664 -0.008207433 0.08815009
-0.044685025 -0.071636096 0.01932089 0.089718565 0.12993027 -0.080662414 -0.12353453 -0.014504903
0.044951484 -0.0033519496 -0.03949479 0.13513817 0.028896429 -0.0030821841 -0.07297754 0.0808261
00000000: 5464 363e fb3c 33be 521e e23d e74e 32be
00000010: 32f1 0abd 02ad f23d 49f5 b7bd 49fb 04be
00000020: cd8b 7bbd 4a82 f33d 9875 fd3b 3f79 a4bd
00000030: aad7 1cbb db44 e2bd b78e ef3c ebc9 32be
00000040: ed5d 943d ed24 05bd 4d6c 193d 2c44 81bd
00000050: e7fc 38bd ccb1 f1bd d209 603c 4b79 a63e
00000060: 2dc0 92bc 53ec e53d 5065 5abd 8ad9 0abe
00000070: bf5e 57bd eebd 94bb 02f6 2ebe 74d3 9bbd
00000080: 3382 1abc 2d6f ba3d 9431 c9bd 32ed 99bd
00000090: 5387 70bd cc2d 693d 3f8f 283d d48a 38be
000000a0: cd5b 233d d585 563c 438d 853e 990a 9b3d
000000b0: 98df 983d 3d16 6a3d 726b dd3a bc4b 96be
000000c0: d199 1ebe e3d9 c73d 935e c83d 88fb e1bd
000000d0: c7cc ad3d 76fe 0cbe 6f39 97bd eab8 10be
000000e0: 6262 abbd 4a2f b0bc 1c7d abbc 7e2a e7bd
000000f0: 0c98 323e 9388 cb3d 86fb c03c 559a 883c
00000100: 9415 a23d 7d8d 103d 597f 853d 7ea7 d1bc
00000110: 0ce2 03be 69ad 02be 9495 883d 7b91 08bd
00000120: 8f00 8f3d 5761 85bd b46e dbbc e4ec 7dbd
00000130: 8231 a0bc 6d0f 953d 655b 4a3d 3f11 813d
00000140: 82a7 963d d4df 5ebd 23c5 01bc 0635 bdbc
00000150: 6ecb f83d 61b4 edbd d8da 003d bb81 cabd
00000160: 88d0 9e3b 37a6 b73d 42ff 35be a740 0fbe
00000170: 78a9 863c 14ab 5abe b5bb 1abb 7316 773d
00000180: cbc6 f7bd a4db 94bd 9e27 4abd d413 903d
00000190: ec55 ce39 370d 543d f88c 0d3e 04e7 5bbb
000001a0: a716 25bc df69 8ebd a338 e8bd b132 e23d
000001b0: 3088 e9bd 30a0 003e 2553 d9bc 6a74 9fbd
000001c0: 8d8d 083d 83e0 2fbd 0a18 103d 8e31 cabd
000001d0: 1504 563d e079 45bd 478d b13c 8ff4 6cbe
000001e0: 335b 95bc 0706 0fbe 75db ec3d 0058 e2bd
000001f0: 1aef aebd 949d 2b3d e2ce 853b 9bf9 ee3d
00000200: d89f 81bd 7d2a e3bc 14a3 e73c 77fb c9bd
00000210: 4416 30bd aefc bebd 72fe b1bd 67de 22bd
00000220: 56d6 aebd 70b1 88bc f9c9 bbbd 5779 a83e
00000230: 9529 8bbd 63c9 8b3b 06d2 03bd 30f2 a8bd
00000240: 5793 28bd c44d 51bd 4827 12bc ea00 5e3e
00000250: 4162 15bd d113 be3b 98b1 ea3a 2e91 db3d
00000260: 677c d33c 658b fd3d 6bb6 f6bd 4bd6 3a3d
00000270: 9b3a 5b3c 42e1 813d ab89 993d 61e8 9a3a
00000280: 0936 e83d e65a 87bc 9c5a 25be d702 1b3e
00000290: 1b7b b53d aca1 38bd 952a 3c3e 8209 8d3e
000002a0: 7a65 93bd a4a0 e13d 775e 413d 1099 103e
000002b0: 7110 9ebd d220 233d 386d b03c c030 f7bd
000002c0: bde2 e63c 5587 163e 049e e0bc 983b b339
000002d0: 4a7f 2d3e f94b c6bc 2f77 f6bc 98be 29be
000002e0: e7dc 0bbe c115 57be 5240 0ebd fa59 11be
000002f0: eb36 ca3c a0bb 08be 95d4 02bd 3f37 dc3d
00000300: d29e 1a3d 9f20 2ebe e89f 033e 0d95 423c
00000310: 088d 143d 2686 e9bb 8f59 d8bd da86 4bbd
00000320: 607b db3d 8e9f 1bbd 66bc 70bd 147a 4cbd
00000330: 478e f03c 8709 083e 7e64 c13d 0821 99bd
00000340: f088 033e f6cb 41bc 8f78 8e3d d301 763d
00000350: e88e b43d 3e9a 01be 01d8 d43d 4bad 00be
00000360: a4ac 853c 8a3f ef3d e6c2 8e3d 13a6 14bd
00000370: bb06 8c3d 7fe8 2f3d 7a4e 1f3d 7249 ad3d
00000380: 2098 fcbd 1ecd e23d ec24 28be 10e1 99bd
00000390: d876 083e af8e e83d fc66 17be 1c40 84bd
000003a0: 6cc4 5f3d 5765 4abd ea53 91bb 1ca8 633c
000003b0: 0add 87bc a2c4 413d 7878 06bc 0988 b43d
000003c0: a507 37bd f2b5 92bd d846 9e3c 5ebe b73d
000003d0: 710c 053e 5632 a5bd acff fcbd f9a5 6dbc
000003e0: 0c1f 383d 62ac 5bbb 4ac5 21bd a961 0a3e
000003f0: 34b8 ec3c 78fe 49bb 4075 95bd 2888 a53d

e f4 [25, 25]
-0.15303692 -0.049923588 0.12158709 0.13587467 -0.009669911 -0.19028 -0.11789361 0.24912056
0.16112956 -0.014202558 0.16375607 -0.103144474 -0.1757641 -0.015615663 0.14166181 -0.03468131
-0.26328337 0.018693145 0.2675185 0.026677622 -0.2084601 -0.05154303 -0.26867473 0.0549179
-0.09339939 0.028304413 -0.018436864 -0.014873067 0.079294324 0.029874898 0.09425616 -0.037251938
-0.15753835 0.08134331 -0.06917429 -0.1045443 -0.12558071 0.07770948 0.1126405 0.014473528
0.15586223 0.10487465 -0.06990658 -0.13604511 -0.028740091 0.07169364 -0.022348903 0.12692836
-0.03217056 0.013470936 -0.020942423 0.044531573 0.14545174 -0.082431406 0.046729065 0.023849897
-0.049287952 0.071450286 0.18571882 0.08170632 -0.05492112 0.20431198 0.057161525 0.041072417
0.2244913 -0.17004061 -0.07150942 0.054020036 0.1358152 -0.087484196 0.22420333 -0.0041053556
0.12081932 -0.09539163 0.063077785 -0.045525916 0.22817057 -0.029936876 0.00655025 0.11720934
-0.026660934 -0.031628016 0.050254658 0.048395764 -0.15976009 0.018060088 0.22204474 0.1249358
0.10006026 -0.07916811 -0.045362975 0.09167103 -0.01755173 0.09902984 -0.3059557 -0.08952195
0.010184498 0.020916324 0.035251737 -0.027637616 0.17352428 0.2487711 0.16118072 0.12848291
-0.050032225 -0.1182347 0.0041866703 -0.09476744 0.09834029 0.021580672 -0.053944223 0.026401723
-0.003945711 0.025329685 0.12917015 0.13216694 0.13538536 0.0750152 -0.06920616 0.038412847
-0.09904336 -0.019919153 -0.02171769 0.05841892 -0.11669631 0.08767093 0.0700695 0.029892892
-0.043652173 -0.07762607 0.012812926 0.17172705 0.065652765 0.052480493 -0.28478366 0.094761804
0.045588657 -0.14510152 -0.05025944 -0.06822906 0.0205056 0.150734 -0.10524474 0.07038786
0.102513775 0.08215785 0.07005106 -0.0034795068 -0.14636904 -0.051855855 -0.13207468 0.04831499
0.014020809 -0.099741094 0.020809432 0.1693805 -0.033153247 0.011006917 0.088277236 -0.12963863
0.10837974 -0.029173424 0.091828786 -0.012834571 -0.056200996 0.072518505 0.017565874 -0.0975085
-0.03042362 -0.33622223 -0.034711692 0.15825345 -0.10577328 0.1428932 0.013073259 0.06649251
0.020187119 -0.25351873 -0.16954531 -0.020990621 0.21397743 0.14004467 -0.16246447 0.026682977
0.18141744 -0.2154597 0.023903623 -0.01463324 -0.08285758 0.07941697 0.0024436722 -0.010132741
-0.16765708 0.006871826 -0.018230623 0.060869325 0.070328414 0.027407493 0.043652818 -0.10265359
0.058253992 -0.058478143 0.014833614 -0.14504759 -0.1424241 0.060326234 -0.053461317 -0.09548453
0.11109389 -0.08627691 0.10300081 -0.047726013 0.040575597 -0.11357491 0.16766052 -0.028366685
0.048717555 -0.02902618 -0.04983789 0.11738996 -0.20611468 -0.050327837 -0.18505031 -0.05877312
-0.059154768 -0.043123506 -0.0018889805 0.022393832 0.062407006 -0.026868498 0.060494684 -0.075674266
0.032266635 -0.06852291 0.06457682 -0.13278636 0.04328972 0.008552851 0.20454292 0.021562211
-0.028703472 -0.018410392 0.08615418 0.0033937432 0.018129097 -0.047588114 0.017867848 -0.05825761
-0.030775942 -0.07116848 -0.10634841 0.05514003 0.110110216 -0.13549769 -0.072343566 -0.12924717
00000000: b6b5 1cbe ad7c 4cbd a702 f93d bb22 0b3e
00000010: 8c6e 1ebc c3d8 42be 3472 f1bd 7619 7f3e
00000020: 26ff 243e d9b1 68bc acaf 273e 693d d3bd
00000030: 81fb 33be d6d8 7fbc cb0f 113e fd0d 0ebd
00000040: 14cd 86be 5e22 993c 2ff8 883e 078b da3c
00000050: 9176 55be c91e 53bd bc8f 89be 98f1 603d
00000060: 2e48 bfbd a8de e73c e808 97bc 2aae 73bc
00000070: 1065 a23d 34bc f43c 6009 c13d 7d95 18bd
00000080: bc51 21be 5297 a63d 40ab 8dbd 521b d6bd
00000090: 3b98 00be 2626 9f3d 10b0 e63d 6022 6d3c
000000a0: 599a 1f3e 85c8 d63d 2e2b 8fbd 694f 0bbe
000000b0: 5770 ebbc 1dd4 923d 0c15 b7bc 82f9 013e
000000c0: 47c5 03bd 33b5 5c3c 728f abbc bd66 363d
000000d0: 4df1 143e ccd1 a8bd fa66 3f3d dc60 c33c
000000e0: 2ae2 49bd 8754 923d 132d 3e3e a555 a73d
000000f0: f8f4 60bd 2937 513e 3422 6a3d 8d3b 283d
00000100: 0ce1 653e 201f 2ebe 8873 92bd 1d44 5d3d
00000110: 2413 0b3e ea2a b3bd 8f95 653e 3886 86bb
00000120: 1f70 f73d b05c c3bd ed2e 813d 6279 3abd
00000130: 8ca5 693e 2e3e f5bc 7ba3 d63b 730b f03d
00000140: 0868 dabc 618c 01bd d4d7 4d3d a33a 463d
00000150: 2698 23be c0f2 933c b25f 633e 57de ff3d
00000160: 65ec cc3d e422 a2bd 87ce 39bd 05be bb3d
00000170: a5c8 8fbc 28d0 ca3d 3aa6 9cbe 4957 b7bd
00000180: e1dc 263c b658 ab3c 2064 103d 4868 e2bc
00000190: 59b0 313e dabd 7e3e 8f0c 253e 0691 033e
000001a0: 97ee 4cbd 0925 f2bd 5630 893b 6e15 c2bd
000001b0: a266 c93d f3c9 b03c 9ef4 5cbd 6d48 d83c
000001c0: 064b 81bb 3380 cf3c 2e45 043e c556 073e
000001d0: 76a2 0a3e 92a1 993d f6bb 8dbd ca56 1d3d
000001e0: 3fd7 cabd 7e2d a3bc 4ce9 b1bc ad48 6f3d
000001f0: 7afe eebd d18c b33d 9980 8f3d f0e1 f43c
00000200: 9fcc 32bd 6bfa 9ebd 4fed 513c 37d9 2f3e
00000210: f574 863d c9f5 563d 2acf 91be 7a12 c23d
00000220: 2cbb 3a3d 7e95 14be d8dc 4dbd adbb 8bbd
00000230: 5cfb a73c 045a 1a3e 8e8a d7bd 8327 903d
00000240: bef2 d13d 6042 a83d ee76 8f3d 7008 64bb
00000250: c4e1 15be ce66 54bd 963e 07be f0e5 453d
00000260: 89b7 653c 0f45 ccbd 8b78 aa3c 1572 2d3e
00000270: b3cb 07bd 5b56 343c b2ca b43d fdbf 04be
00000280: 32f6 dd3d 1bfd eebc bb10 bc3d 1848 52bc
00000290: 0433 66bd 9584 943d 4fe6 8f3c 89b2 c7bd
000002a0: f53a f9bc 5225 acbe d92d 0ebd 310d 223e
000002b0: a99f d8bd 9852 123e 3931 563c 3a2d 883d
000002c0: 755f a53c 35cd 81be 499d 2dbe 86f4 abbc
000002d0: e61c 5b3e df67 0f3e 165d 26be 4296 da3c
000002e0: 7ec5 393e 78a1 5cbe 88d1 c33c 42c0 6fbc
000002f0: 3cb1 a9bd 5da5 a23d 0426 203b cc03 26bc
00000300: 4cae 2bbe 0e2d e13b 6358 95bc 1d52 793d
00000310: 5808 903d ae85 e03c 4ccd 323d 0c3c d2bd
00000320: bd9b 6e3d c786 6fbd b008 733c 5b87 14be
00000330: a0d7 11be a418 773d 41fa 5abd 658d c3bd
00000340: 3285 e33d f3b1 b0bd 17f2 d23d 5a7c 43bd
00000350: 9932 263d f699 e8bd 33af 2b3e 4061 e8bc
00000360: 0f8c 473d 50c8 edbc d122 4cbd 266a f03d
00000370: ba0f 53be 9024 4ebd d47d 3dbe 15bc 70bd
00000380: 454c 72bd 46a2 30bd ab97 f7ba 4573 b73c
00000390: 7d9e 7f3d 531b dcbc 46c9 773d 1cfb 9abd
000003a0: 052a 043d bd55 8cbd da40 843d 26f9 07be
000003b0: 9050 313d 4221 0c3c b373 513e 3ca3 b03c
000003c0: 8b23 ebbc 64d1 96bc 9a71 b03d 9069 5e3b
000003d0: 7983 943c c1eb 42bd 985f 923c 889f 6ebd
000003e0: d41d fcbc c8c0 91bd 32cd d9bd 83da 613d
000003f0: 7781 e13d e8bf 0abe dd28 94bd 5f59 04be

rnn.weight_ih f4 [256, 64]
-0.03388181 -0.0257749 0.05512261 0.11428505 -0.045193493 0.10845555 0.08467558 0.040271327
-0.005304052 -0.13609886 -0.05595927 0.053468276 -0.036024045 0.0965595 -0.09886307 0.00708728
0.048437923 0.02114767 -0.10857242 0.06618337 0.09498089 0.11797744 -0.1051286 0.036493976
0.028682934 -0.114256665 0.007220355 0.09883725 -0.016072316 -0.057364088 0.085705124 -0.08279354
0.09099655 0.111132994 0.014605598 0.03467634 0.07639119 -0.05504555 0.0644558 -0.06406801
0.11811062 -0.05615677 0.122707784 0.12623821 -0.057697013 0.061629437 0.0031961943 -0.124314964
-0.1318947 -0.014588891 -0.10367749 -0.048365008 -0.11748433 -0.085390925 -0.11694781 0.10899491
0.06852694 -0.025943177 0.0050908267 -0.08818871 -0.061902184 -0.12550166 0.11077869 0.04684001
0.05687256 -0.098547556 -0.101273514 -0.030634943 0.06945125 -0.13273671 0.069861084 -0.11623467
-0.052767448 -0.010497522 -0.09108928 0.051776487 -0.07188322 -0.10711425 -0.11472662 -0.12443672
0.04821591 -0.011819497 -0.08464287 -0.032060795 0.032624576 0.030810054 0.025831506 0.10363371
0.015190288 -0.13261576 -0.06377679 0.12140998 -0.10534311 -0.060879093 -0.098662436 -0.0865857
-0.13515507 -0.025224954 0.10118105 -0.10622141 -0.06819182 -0.049520936 0.0565239 0.12832072
0.12655893 0.016822806 0.10278753 0.05775377 -0.12401307 0.083310485 0.105938345 -0.030077165
-0.043025713 -0.039875187 0.11143422 -0.053582672 0.0961928 0.071400076 -0.012322137 0.0058306847
-0.13026018 0.0019349125 0.069789805 0.11021538 0.07801866 0.084625795 0.0014324815 -0.05320953
-0.112207316 -0.11701792 0.07613458 -0.0150289005 0.12720163 -0.13494715 -0.04098705 -0.104769595
-0.10002386 -0.13317636 -0.006454099 0.12650464 -0.08279335 0.05484682 0.08079078 0.025338368
-0.006439373 0.09421764 0.06493834 -0.12021741 -0.08381164 0.08051459 -0.12580071 0.0006897648
0.056133173 -0.11303504 -0.059293225 -0.025306998 -0.12737083 -0.098983414 -0.04955799 -0.0059110303
0.04823403 -0.048476774 -0.08178042 -0.12058746 0.10540718 0.03464035 -0.09610575 -0.0028163926
0.113874435 0.074287534 0.012745714 -0.021016032 -0.03290713 -0.113599814 -0.13216488 0.05978428
-0.12293939 -0.08120589 0.028119592 -0.026093962 -0.05097076 0.119086534 0.02613081 0.016754566
0.012965757 0.09826115 0.06982037 -0.079493985 -0.030274315 0.10898467 -0.10580023 -0.12907636
0.084483474 -0.033847116 0.011798652 -0.09976853 0.07216031 -0.12861583 -0.06687429 -0.07951125
-0.032154452 -0.11760315 0.061627783 -0.038952675 -0.064662136 0.101676434 -0.11403957 -0.11724197
-0.13044618 -0.057488855 0.003174501 0.089244716 -0.050961986 0.03210468 0.12882312 0.104435615
0.044726595 0.06807877 0.03961796 0.115703106 0.13574949 0.039969433 0.11574721 -0.024979934
-0.1046167 0.1264647 -0.06277584 -0.03152363 -0.031914353 0.011053067 -0.01342526 0.13493991
-0.102423556 -0.1338725 0.07385424 0.08127203 0.08732513 -0.12743181 -0.06610435 0.075868286
-0.05526515 0.046015453 0.05323517 0.024221415 -0.011019856 0.053341433 0.08336079 -0.035496633
0.047940902 -0.09954643 -0.09758416 0.00085101824 -0.011105692 0.13459392 -0.09821332 0.0747756
00000000: a7c7 0abd e225 d3bc 3fc8 613d 480e ea3d
00000010: d01c 39bd f21d de3d 646a ad3d 8cf3 243d
00000020: 9dcd adbb 805d 0bbe 8c35 65bd 8d01 5b3d
00000030: f38d 13bd fdc0 c53d b978 cabd 6a3c e83b
00000040: d866 463d e13d ad3c 385b debd 268b 873d
00000050: 5785 c23d 289e f13d aa4d d7bd b57a 153d
00000060: 79f8 ea3c 66ff e9bd ba98 ec3b 2f6b ca3d
00000070: 17aa 83bc 9bf6 6abd 2b86 af3d a98f a9bd
00000080: 665c ba3d b299 e33d 514c 6f3c c708 0e3d
00000090: fc72 9c3d 7177 61bd 6701 843d 1736 83bd
000000a0: fbe3 f13d a404 66bd 384e fb3d 9744 013e
000000b0: b453 6cbd 266f 7c3d 3e77 513b d898 febd
000000c0: 670f 07be 3e06 6fbc dd54 d4bd 631a 46bd
000000d0: a09b f0bd 70e1 aebd 5582 efbd b938 df3d
000000e0: da57 8c3d c986 d4bc f3d0 a63b 489c b4bd
000000f0: 258d 7dbd 8283 00be f0df e23d 4fdb 3f3d
00000100: 34f3 683d 4dd3 c9bd 7d68 cfbd 22f6 fabc
00000110: 753c 8e3d 22ec 07be 5413 8f3d 710c eebd
00000120: ae22 58bd ccfd 2bbc 048d babd 9513 543d
00000130: 8237 93bd b75e dbbd caf5 eabd aed8 febd
00000140: 0c7e 453d 90a6 41bc 3e59 adbd 2e52 03bd
00000150: 59a1 053d 5e65 fc3c 989c d33c e93d d43d
00000160: b0e0 783c 6dcc 07be 689d 82bd cca5 f83d
00000170: 21be d7bd 5b5c 79bd 880f cabd d853 b1bd
00000180: 1766 0abe 90a4 cebc 0338 cf3d 9c8a d9bd
00000190: 27a8 8bbd 77d6 4abd 9b85 673d 8266 033e
000001a0: aa98 013e fbcf 893c 4582 d23d 388f 6c3d
000001b0: 90fa fdbd b09e aa3d 34f6 d83d 6364 f6bc
000001c0: bb3b 30bd 2a54 23bd a037 e43d 8179 5bbd
000001d0: bb00 c53d 343a 923d cae2 49bc 540f bf3b
000001e0: ed62 05be e49c fd3a f5ed 8e3d 9ab8 e13d
000001f0: 3fc8 9f3d 4a50 ad3d 1ac2 bb3a 3cf2 59bd
00000200: f3cc e5bd 17a7 efbd 72ec 9b3d c73b 76bc
00000210: 2541 023e 962f 0abe 09e2 27bd 7191 d6bd
00000220: 4fd9 ccbd 625f 08be e87c d3bb 6f8a 013e
00000230: 8f8f a9bd 0fa7 603d a375 a53d 6992 cf3c
00000240: 6001 d3bb 2ef5 c03d 64fe 843d 8c34 f6bd
00000250: 70a5 abbd d5e4 a43d e7d1 00be 55d1 343a
00000260: e6eb 653d ea7e e7bd 74dd 72bd 9f50 cfbc
00000270: 806d 02be d1b7 cabd 52fd 4abd 51b1 c1bb
00000280: 0c91 453d 958f 46bd 7e7c a7bd 8ff6 f6bd
00000290: b8df d73d 0ae3 0d3d 17d3 c4bd 3a93 38bb
000002a0: 0037 e93d 1024 983d 66d3 503c d029 acbc
000002b0: a0c9 06bd 05a7 e8bd 3b56 07be 5ce0 743d
000002c0: a6c7 fbbd 464f a6bd 0f5b e63c 01c3 d5bc
000002d0: b7c6 50bd a4e3 f33d 4810 d63c df40 893c
000002e0: 546e 543c 243d c93d fbfd 8e3d becd a2bd
000002f0: d701 f8bc 5b33 df3d caad d8bd 982c 04be
00000300: ac05 ad3d 46a3 0abd 224f 413c 7153 ccbd
00000310: c9c8 933d deb3 03be 63f5 88bd cbd6 a2bd
00000320: 63b4 03bd ecd9 f0bd 6a6d 7c3d d78c 1fbd
00000330: 956d 84bd bc3b d03d 948d e9bd 8f1c f0bd
00000340: af93 05be 6f79 6bbd 4a0b 503b efc5 b63d
00000350: 84bd 50bd 3280 033d 35ea 033e 57e2 d53d
00000360: 3c33 373d e26c 8b3d 7146 223d c0f5 ec3d
00000370: ea01 0b3e fdb6 233d e00c ed3d b8a2 ccbc
00000380: 4841 d6bd f67f 013e 9f90 80bd ec1e 01bd
00000390: a0b8 02bd ec17 353c 9ff5 5bbc b02d 0a3e
000003a0: 71c3 d1bd df15 09be e440 973d f371 a63d
000003b0: 85d7 b23d 7c7d 02be b861 87bd d560 9b3d
000003c0: b65d 62bd b37a 3c3d 1f0d 5a3d fd6b c63c
000003d0: a08c 34bc 8c7c 5a3d 10b9 aa3d eb64 11bd
000003e0: ae5d 443d 00df cbbd 34da c7bd de16 5f3a
000003f0: a6f4 35bc fdd2 093e 1124 c9bd f323 993d

rnn.weight_hh f4 [256, 64]
-0.008332229 -0.0439389 0.07312001 -0.06794145 0.0020195432 0.053372428 0.120393306 0.11165553
0.009069778 -0.09740006 -0.018148351 0.05753356 0.012064217 -0.011846751 -0.030841962 0.026593622
0.0292477 0.14923854 -0.0022097845 0.023232741 0.073006734 0.0058556707 -0.07179475 -0.0427607
0.013360944 -0.02026363 0.10110129 -0.1618006 -0.02647433 -0.05577603 -0.019656252 -0.07570456
0.029505128 -0.0068150386 -0.015318722 0.017723365 0.0027086914 0.028568715 0.02472012 -0.03172731
-0.10677918 0.09864312 -0.020146286 -0.1185638 -0.012137951 0.047101043 0.048869357 -0.0692681
-0.01708466 0.0067608748 0.0017366646 0.07194381 0.010387089 -0.014802332 -0.06998388 -0.014439139
0.011093661 -0.115229875 -0.007904692 0.117139466 0.06614668 -0.051536184 0.03764547 -0.017394448
-0.010582407 -0.0015451687 0.0087620765 0.09595718 0.009943276 -0.076482 -0.109671 -0.01895379
-0.05064146 0.036013238 -0.0013123159 -0.07230851 -0.038814306 0.0074965893 0.027287405 -0.010193869
-0.062232137 -0.029585106 -0.08992935 -0.0074214893 0.12904151 -0.025978288 -0.0040487023 -0.04272423
-0.09095836 -0.061333597 0.017641956 0.007545031 0.0036403537 -0.055806026 -0.09929071 0.026504198
-0.042734955 -0.021580297 -0.02288516 0.030673878 -0.04804713 0.057368197 0.04402546 0.01127469
0.12909801 0.068511985 0.036905415 -0.002934469 -0.13011816 0.1381793 0.024691397 -0.060499087
-0.016193952 0.002014209 0.067708485 -0.17024915 -0.10264748 -0.10617753 0.09647165 0.028963085
-0.028572574 0.08861979 -0.00553383 -0.08538993 0.061238606 -0.065535426 0.072482735 -0.051165078
-0.054508775 -0.021555793 -0.02097539 0.04255066 0.05751304 0.020710655 0.025311109 -0.011201544
0.020578729 0.0011229694 0.045168843 -0.012772376 0.018502051 0.028046427 0.04582068 -0.11393662
-0.11786893 -0.034770865 0.05668663 -0.009085166 0.085652545 0.11555325 -0.024656717 0.012360782
0.039852396 -0.033845805 0.047630638 0.08734843 -0.005895162 0.05570203 0.050562702 -0.008469203
-0.05678848 -0.04042 0.16277708 -0.0065544234 -0.08161657 -0.013338156 0.15437524 0.036651082
-0.028110104 -0.049035452 0.048230004 0.004948507 0.054744206 -0.00945214 -0.07148516 0.021384956
0.0760082 0.031248083 -0.02122498 -0.08257216 0.060160894 -0.019455515 0.036620703 -1.8508988e-05
-0.0634061 0.020263575 -0.020965045 0.057854988 -0.022257593 0.12682387 -0.04498046 0.012177787
0.0015483103 0.016104441 -0.09329505 0.07577716 0.048171386 -0.041863095 -0.01624849 0.077184044
-0.08439993 0.019607529 -0.008113357 0.12394711 -0.066632785 0.00975201 -0.047911935 -0.1057092
-0.0012292911 -0.0156071745 -0.007479736 0.045370888 0.11605293 -0.018424733 -0.07601845 -0.012187935
0.016640909 0.06797332 -0.010426473 -0.17332324 0.0063243625 0.017007565 0.08612154 -0.07078616
0.09585318 0.06400475 -0.099529676 0.0070683556 0.06045097 0.0068715424 0.056821287 0.061787527
-0.020987358 0.15850012 -0.025442922 0.022136467 -0.084459595 0.038176924 -0.028790103 0.10190233
0.014630639 -0.056234412 0.038454235 -0.09776353 -0.0071789543 0.06325413 0.048704475 -0.050564744
0.087530255 -0.04615971 -0.002189823 0.055063013 -0.032776274 0.046100166 -0.046077043 0.13591373
00000000: e783 08bc 47f9 33bd f2bf 953d e324 8bbd
00000010: 505a 043b 0c9d 5a3d c490 f63d a8ab e43d
00000020: 6899 143c af79 c7bd daab 94bc 4fa8 6b3d
00000030: fea8 453c e018 42bc 48a8 fcbc deda d93c
00000040: df98 ef3c fdd1 183e 08d2 10bb 9752 be3c
00000050: 8e84 953d ede0 bf3b 2009 93bd d825 2fbd
00000060: dce7 5a3c eaff a5bc 310e cf3d 0eaf 25be
00000070: b2e0 d8bc 6875 64bd 2606 a1bc fe0a 9bbd
00000080: bdb4 f13c b050 dfbb 61fb 7abc 9730 913c
00000090: 4d84 313b f008 ea3c d981 ca3c 7ff4 01bd
000000a0: 0baf dabd 6705 ca3d d309 a5bc 94d1 f2bd
000000b0: 42de 46bc 06ed 403d 3c2b 483d 6fdc 8dbd
000000c0: 21f5 8bbc 548a dd3b cba0 e33a 4757 933d
000000d0: 9c2e 2a3c 7b85 72bc b553 8fbd 2392 6cbc
000000e0: 30c2 353c a4fd ebbd ae82 01bc d1e6 ef3d
000000f0: e977 873d 9b17 53bd 2332 1a3d cd7e 8ebc
00000100: d561 2dbc 4287 caba d08e 0f3c 3385 c43d
00000110: 1fe9 223c 98a2 9cbd 309b e0bd fb44 9bbc
00000120: 6b6d 4fbd 9e82 133d 0402 acba 7c16 94bd
00000130: c0fb 1ebd f3a5 f53b d689 df3c 2f04 27bc
00000140: 20e7 7ebd 775c f2bc e12c b8bd f72f f3bb
00000150: 7523 043e 6bd0 d4bc faaa 84bb 9aff 2ebd
00000160: 6048 babd f038 7bbd dd85 903c 4f3c f73b
00000170: 0093 6e3b dc94 64bd ee58 cbbd 551f d93c
00000180: d90a 2fbd 2ac9 b0bc a979 bbbc c947 fb3c
00000190: 11cd 44bd eafa 6a3d 0a54 343d 7ab9 383c
000001a0: 4532 043e 0350 8c3d 222a 173d 3850 40bb
000001b0: b23d 05be e07e 0d3e 9d45 ca3c e4cd 77bd
000001c0: 2ea9 84bc d200 043b bfaa 8a3d cb55 2ebe
000001d0: d838 d2bd 9b73 d9bd ee92 c53d fe43 ed3c
000001e0: 0811 eabc 4b7e b53d 2155 b5bb eae0 aebd
000001f0: 55d5 7a3d 7037 86bd d471 943d 7992 51bd
00000200: 9844 5fbd c695 b0bc 95d4 abbc 9a49 2e3d
00000210: cb92 6b3d 64a9 a93c 3e59 cf3c ae86 37bc
00000220: b994 a83c 9a30 933a f702 393d 3a43 51bc
00000230: 9d91 973c 9fc1 e53c 77ae 3b3d 9a57 e9bd
00000240: 4465 f1bd e56b 0ebd 3d30 683d f3d9 14bc
00000250: 9a6a af3d 2fa7 ec3d e2fc c9bc e184 4a3c
00000260: 443c 233d e6a1 0abd 5818 433d bce3 b23d
00000270: 342c c1bb d027 643d d61a 4f3d 69c2 0abc
00000280: 0a9b 68bd 718f 25bd 09af 263e 7dc6 d6bb
00000290: 9726 a7bd 4888 5abc 8b14 1e3e 721f 163d
000002a0: 2947 e6bc 66d9 48bd d38c 453d 1627 a23b
000002b0: 763b 603d 26dd 1abc d066 92bd 812f af3c
000002c0: 30aa 9b3d fbfb ff3c 02e0 adbc 981b a9bd
000002d0: 456b 763d 2c61 9fbc 97ff 153d c043 9bb7
000002e0: 0fdb 81bd ccff a53c e3be abbc 5af9 6c3d
000002f0: 8e55 b6bc 1ede 013e 6e3d 38bd 5785 473c
00000300: acf0 ca3a 76ed 833c 7a11 bfbd 0e31 9b3d
00000310: 5c4f 453d a378 2bbd 8e1b 85bc ab12 9e3d
00000320: dfd9 acbd f89f a03c e3ed 04bc fbd7 fd3d
00000330: c576 88bd e5c6 1f3c 4e3f 44bd 117e d8bd
00000340: 2a20 a1ba 3cb5 7fbc 9318 f5bb d3d6 393d
00000350: 29ad ed3d 77ef 96bc 90af 9bbd e8af 47bc
00000360: 8452 883c 9935 8b3d ccd3 2abc a67b 31be
00000370: 993c cf3b 7353 8b3c 7d60 b03d 56f8 90bd
00000380: ac4e c43d ec14 833d 37d6 cbbd aa9d e73b
00000390: 709b 773d ad2a e13b 70bd 683d eb14 7d3d
000003a0: aeed abbc db4d 223e ad6d d0bc 8957 b53c
000003b0: 27f9 acbd 685f 1c3d 39d9 ebbc 2bb2 d03d
000003c0: 59b5 6f3c 0e56 66bd 3082 1d3d 3f38 c8bd
000003d0: 6f3d ebbb 628b 813d 587e 473d fa1c 4fbd
000003e0: 1043 b33d f711 3dbd 2283 0fbb c189 613d
000003f0: 6a40 06bd 87d3 3c3d 48bb 3cbd f82c 0b3e

rnn.bias_ih f4 [256]
-0.0009851762 -0.0009922184 0.0009936627 -0.0009941678 0.000991943 -0.0009977786 -0.0009946774 0.0009909656
-0.0009917488 -0.0009991626 -0.0009935001 -0.0009974733 -0.0009939655 -0.00096186396 -0.0009986457 0.0009978426
-0.0009987481 -0.0009994728 0.0009963937 0.0009964653 -0.0009983412 -0.0009789225 -0.0009927943 -0.0009910318
-0.0009850851 0.000997426 -0.0009981807 0.0009762583 0.0009880457 0.0009953118 0.0009439721 -0.0009933637
-0.00097462645 0.0009986577 0.0009753373 -0.0009933579 0.0009982382 -0.0009912336 0.0009959908 -0.0009959278
-0.000987271 -0.0009953413 -0.0009967318 -0.0009944992 -0.0009928496 -0.000950957 -0.0009964139 -0.0009979677
-0.0009953142 -0.0009375294 -0.0009919562 -0.0009945567 0.0009980042 -0.0009958151 0.0009969869 -0.0009915706
-0.000998025 0.0009990109 0.0009945626 0.00038546693 -0.0009979759 0.0009949605 -0.0009965079 -0.0009922602
-0.00095070136 -0.0009826041 0.000996296 -0.0009936049 0.0009667887 -0.0009970107 -0.0009930085 0.0009948876
-0.0009900288 -0.000999133 0.0009879011 -0.0009972537 -0.0009936526 0.0006749825 -0.0009988451 0.0009973124
-0.0009987298 -0.0009995203 0.0009945018 0.0009957907 -0.0009988417 0.0009799122 -0.0009930446 -0.0009888677
-0.00096157985 0.000996835 -0.0009982791 0.0009928046 0.0009921825 0.0009958213 0.0009900315 -0.0009814886
-0.00095323013 0.0009981582 0.0009911911 0.0009833939 0.0009980251 -0.0009655357 0.0009985692 -0.0009921992
0.0009935483 -0.0009958381 -0.0009972678 -0.000990021 -0.0009928093 -0.0009906201 -0.000994626 -0.0009984433
-0.0009926235 -0.0008827793 -0.000988797 -0.0009931648 0.0009984686 -0.0009974071 0.000997513 -0.0009716473
-0.0009969886 0.0009990018 0.00099526 0.000977034 -0.0009975655 0.0009912702 -0.0009968433 -0.0009945873
-0.0009999459 -0.0009998806 0.0009999718 -0.0009999723 0.0009994591 0.0009999633 0.0009998948 -0.0009999237
0.0009999824 -0.0009999787 0.0009999782 0.0009999425 -0.0009998631 0.0009997844 -0.0009999835 -0.0009999784
0.0009999794 0.0009999863 -0.0009999678 -0.0009999542 0.0009999736 -0.0009999531 -0.0009999499 -0.0009999583
-0.0009999685 -0.0009999723 0.0009999712 0.0009999537 0.0009999768 -0.0009999784 -0.0009999006 0.0009998352
0.0009998968 0.0009999756 -0.0009994566 0.0009998287 0.000999984 0.0009999457 0.0009999754 -0.0009999073
0.0009999807 0.0009999594 -0.0009999151 0.0009999581 -0.0009999397 0.0009997828 0.000999924 0.0009999701
0.0009998408 0.0009998283 0.0009999402 -0.0009998989 -0.0009999827 -0.0009999766 -0.0009999458 0.0009998828
-0.0009999474 -0.0009999813 -0.0009999736 0.0009998719 0.0009999814 -0.0009999583 -0.0009999819 -0.0009993394
-0.0009863026 -0.0009911122 0.000992434 -0.0009941857 0.0009917857 -0.0009976227 -0.0009940976 0.000991942
-0.0009912623 -0.0009991924 -0.000991481 -0.0009969882 -0.0009939086 -0.00095705426 -0.0009986092 0.0009978969
-0.0009987472 -0.0009994867 0.0009963695 0.0009964945 -0.0009984592 -0.0009783211 -0.000993223 -0.0009906611
-0.0009857863 0.000997517 -0.0009982494 0.0009757753 0.000988368 0.0009951716 0.0009530678 -0.0009939385
-0.0009767318 0.0009986617 0.0009760193 -0.0009924212 0.0009982295 -0.0009903124 0.0009965554 -0.000995787
-0.0009913502 -0.0009957874 -0.0009972574 -0.0009915936 -0.0009938768 -0.00094360457 -0.0009964757 -0.0009980462
-0.0009956125 -0.0008555864 -0.0009924754 -0.0009937013 0.0009979832 -0.0009958326 0.0009969914 -0.000991726
-0.0009980566 0.0009990431 0.000994312 7.8160694e-05 -0.0009979918 0.0009949342 -0.0009964103 -0.0009934044
00000000: 0721 81ba 530d 82ba ca3d 823a bc4e 82ba
00000010: 1504 823a e5c7 82ba d65f 82ba 4ae3 813a
00000020: 91fd 81ba 55f6 82ba 5538 82ba a6bd 82ba
00000030: f347 82ba 9925 7cba fde4 82ba 0bca 823a
00000040: 6de8 82ba be00 83ba 6d99 823a d49b 823a
00000050: c6da 82ba 304f 80ba a620 82ba 82e5 81ba
00000060: f91d 81ba 10bc 823a 63d5 82ba 96eb 7f3a
00000070: 5081 813a 1f75 823a e574 773a c133 82ba
00000080: 137e 7fba 64e5 823a c7ad 7f3a 8f33 82ba
00000090: 51d7 823a 48ec 81ba e88b 823a cb89 82ba
000000a0: 5167 81ba 1d76 82ba c5a4 82ba db59 82ba
000000b0: 8122 82ba a549 79ba 1a9a 82ba 3dce 82ba
000000c0: 3475 82ba 88c4 75ba 8704 82ba c95b 82ba
000000d0: 77cf 823a 0386 82ba 54ad 823a 97f7 81ba
000000e0: 29d0 82ba 3ef1 823a fc5b 823a 7f18 ca39
000000f0: 84ce 82ba 5669 823a 429d 82ba ba0e 82ba
00000100: 7d38 79ba b9ca 80ba 2596 823a d93b 82ba
00000110: 1770 7d3a 21ae 82ba d627 82ba e366 823a
00000120: dbc3 81ba 57f5 82ba 767c 813a 48b6 82ba
00000130: 733d 82ba 4ff1 303a aeeb 82ba 40b8 823a
00000140: d0e7 82ba 5602 83ba f159 823a 3185 823a
00000150: 91eb 82ba 6670 803a 0c29 82ba e59c 81ba
00000160: 8812 7cba 3ba8 823a b0d8 82ba ff20 823a
00000170: 1f0c 823a 3886 823a f2c3 813a 4ba5 80ba
00000180: 31e2 79ba a2d4 823a dbea 813a 39e5 803a
00000190: 2ad0 823a 011c 7dba 6ce2 823a ae0c 82ba
000001a0: f339 823a c886 82ba c1b6 82ba 98c3 81ba
000001b0: 2721 82ba b2d7 81ba 1c5e 82ba 33de 82ba
000001c0: eb1a 82ba 516a 67ba 869a 81ba 152d 82ba
000001d0: 0cdf 823a 6ebb 82ba fbbe 823a 26b6 7eba
000001e0: 63ad 82ba f0f0 823a 6273 823a d20f 803a
000001f0: bec0 82ba 82ed 813a 83a8 82ba d05c 82ba
00000200: 9e10 83ba 6d0e 83ba 7c11 833a 8111 83ba
00000210: 4800 833a 3311 833a e70e 833a df0f 83ba
00000220: d711 833a b811 83ba b311 833a 8110 833a
00000230: d70d 83ba 330b 833a e111 83ba b511 83ba
00000240: be11 833a f911 833a 5a11 83ba e510 83ba
00000250: 8c11 833a dc10 83ba c010 83ba 0811 83ba
00000260: 6011 83ba 8111 83ba 7711 833a e110 833a
00000270: a711 833a b511 83ba 190f 83ba e70c 833a
00000280: f80e 833a 9d11 833a 3300 83ba af0c 833a
00000290: e511 833a 9c10 833a 9b11 833a 520f 83ba
000002a0: c911 833a 1211 833a 950f 83ba 0711 833a
000002b0: 6910 83ba 250b 833a e20f 833a 6e11 833a
000002c0: 170d 833a ac0c 833a 6d10 833a 0a0f 83ba
000002d0: da11 83ba a611 83ba 9d10 83ba 800e 833a
000002e0: ab10 83ba ce11 83ba 8c11 83ba 220e 833a
000002f0: cf11 833a 0811 83ba d311 83ba 44fc 82ba
00000300: d346 81ba 35e8 81ba 8f14 823a 564f 82ba
00000310: cefe 813a aac2 82ba 614c 82ba 0d04 823a
00000320: 3eed 81ba 55f7 82ba 95f4 81ba 5fad 82ba
00000330: 0a46 82ba d3e2 7aba c4e3 82ba ddcb 823a
00000340: 65e8 82ba 3501 83ba 9d98 823a cf9c 823a
00000350: bbde 82ba 023b 80ba 092f 82ba 12d9 81ba
00000360: 8035 81ba 1ebf 823a b1d7 82ba 2ccb 7f3a
00000370: 208c 813a 6b70 823a 4cd7 793a 0b47 82ba
00000380: ae05 80ba 87e5 823a 8cdb 7f3a 2114 82ba
00000390: 06d7 823a 5fcd 81ba da9e 823a 1185 82ba
000003a0: 31f0 81ba 1585 82ba 68b6 82ba 5cf8 81ba
000003b0: f944 82ba 3b5c 77ba 2d9c 82ba e0d0 82ba
000003c0: 367f 82ba 6e49 60ba f315 82ba 153f 82ba
000003d0: c2ce 823a 9986 82ba 7bad 823a cdfc 81ba
000003e0: 39d1 82ba 53f2 823a 9353 823a 34ea a338
000003f0: 0ccf 82ba 7468 823a fb99 82ba 1f35 82ba

rnn.bias_hh f4 [256]
-0.0009851762 -0.0009922184 0.0009936627 -0.0009941678 0.000991943 -0.0009977786 -0.0009946774 0.0009909656
-0.0009917488 -0.0009991626 -0.0009935001 -0.0009974733 -0.0009939655 -0.00096186396 -0.0009986457 0.0009978426
-0.0009987481 -0.0009994728 0.0009963937 0.0009964653 -0.0009983412 -0.0009789225 -0.0009927943 -0.0009910318
-0.0009850851 0.000997426 -0.0009981807 0.0009762583 0.0009880457 0.0009953118 0.0009439721 -0.0009933637
-0.00097462645 0.0009986577 0.0009753373 -0.0009933579 0.0009982382 -0.0009912336 0.0009959908 -0.0009959278
-0.000987271 -0.0009953413 -0.0009967318 -0.0009944992 -0.0009928496 -0.000950957 -0.0009964139 -0.0009979677
-0.0009953142 -0.0009375294 -0.0009919562 -0.0009945567 0.0009980042 -0.0009958151 0.0009969869 -0.0009915706
-0.000998025 0.0009990109 0.0009945626 0.00038546693 -0.0009979759 0.0009949605 -0.0009965079 -0.0009922602
0.9990493 0.9990174 1.0009964 0.9990064 1.0009668 0.999003 0.999007 1.0009949
0.99900997 0.99900085 1.0009879 0.99900275 0.99900633 1.000675 0.99900115 1.0009973
0.99900126 0.9990005 1.0009944 1.0009958 0.99900115 1.0009799 0.9990069 0.99901116
0.9990384 1.0009968 0.99900174 1.0009928 1.0009922 1.0009959 1.00099 0.9990185
0.99904674 1.0009981 1.0009912 1.0009834 1.000998 0.99903446 1.0009986 0.9990078
1.0009935 0.9990042 0.99900275 0.99900997 0.99900717 0.9990094 0.9990054 0.99900156
0.9990074 0.9991172 0.9990112 0.9990068 1.0009985 0.9990026 1.0009975 0.9990283
0.999003 1.000999 1.0009953 1.000977 0.99900246 1.0009912 0.9990032 0.99900544
-0.0009999459 -0.0009998806 0.0009999718 -0.0009999723 0.0009994591 0.0009999633 0.0009998948 -0.0009999237
0.0009999824 -0.0009999787 0.0009999782 0.0009999425 -0.0009998631 0.0009997844 -0.0009999835 -0.0009999784
0.0009999794 0.0009999863 -0.0009999678 -0.0009999542 0.0009999736 -0.0009999531 -0.0009999499 -0.0009999583
-0.0009999685 -0.0009999723 0.0009999712 0.0009999537 0.0009999768 -0.0009999784 -0.0009999006 0.0009998352
0.0009998968 0.0009999756 -0.0009994566 0.0009998287 0.000999984 0.0009999457 0.0009999754 -0.0009999073
0.0009999807 0.0009999594 -0.0009999151 0.0009999581 -0.0009999397 0.0009997828 0.000999924 0.0009999701
0.0009998408 0.0009998283 0.0009999402 -0.0009998989 -0.0009999827 -0.0009999766 -0.0009999458 0.0009998828
-0.0009999474 -0.0009999813 -0.0009999736 0.0009998719 0.0009999814 -0.0009999583 -0.0009999819 -0.0009993394
-0.0009863026 -0.0009911122 0.000992434 -0.0009941857 0.0009917857 -0.0009976227 -0.0009940976 0.000991942
-0.0009912623 -0.0009991924 -0.000991481 -0.0009969882 -0.0009939086 -0.00095705426 -0.0009986092 0.0009978969
-0.0009987472 -0.0009994867 0.0009963695 0.0009964945 -0.0009984592 -0.0009783211 -0.000993223 -0.0009906611
-0.0009857863 0.000997517 -0.0009982494 0.0009757753 0.000988368 0.0009951716 0.0009530678 -0.0009939385
-0.0009767318 0.0009986617 0.0009760193 -0.0009924212 0.0009982295 -0.0009903124 0.0009965554 -0.000995787
-0.0009913502 -0.0009957874 -0.0009972574 -0.0009915936 -0.0009938768 -0.00094360457 -0.0009964757 -0.0009980462
-0.0009956125 -0.0008555864 -0.0009924754 -0.0009937013 0.0009979832 -0.0009958326 0.0009969914 -0.000991726
-0.0009980566 0.0009990431 0.000994312 7.8160694e-05 -0.0009979918 0.0009949342 -0.0009964103 -0.0009934044
00000000: 0721 81ba 530d 82ba ca3d 823a bc4e 82ba
00000010: 1504 823a e5c7 82ba d65f 82ba 4ae3 813a
00000020: 91fd 81ba 55f6 82ba 5538 82ba a6bd 82ba
00000030: f347 82ba 9925 7cba fde4 82ba 0bca 823a
00000040: 6de8 82ba be00 83ba 6d99 823a d49b 823a
00000050: c6da 82ba 304f 80ba a620 82ba 82e5 81ba
00000060: f91d 81ba 10bc 823a 63d5 82ba 96eb 7f3a
00000070: 5081 813a 1f75 823a e574 773a c133 82ba
00000080: 137e 7fba 64e5 823a c7ad 7f3a 8f33 82ba
00000090: 51d7 823a 48ec 81ba e88b 823a cb89 82ba
000000a0: 5167 81ba 1d76 82ba c5a4 82ba db59 82ba
000000b0: 8122 82ba a549 79ba 1a9a 82ba 3dce 82ba
000000c0: 3475 82ba 88c4 75ba 8704 82ba c95b 82ba
000000d0: 77cf 823a 0386 82ba 54ad 823a 97f7 81ba
000000e0: 29d0 82ba 3ef1 823a fc5b 823a 7f18 ca39
000000f0: 84ce 82ba 5669 823a 429d 82ba ba0e 82ba
00000100: b2c1 7f3f 9bbf 7f3f a620 803f e2be 7f3f
00000110: ae1f 803f a9be 7f3f ecbe 7f3f 9a20 803f
00000120: 1ebf 7f3f 85be 7f3f 5f20 803f a5be 7f3f
00000130: e1be 7f3f 1e16 803f 8abe 7f3f ae20 803f
00000140: 8cbe 7f3f 7fbe 7f3f 9620 803f a120 803f
00000150: 8abe 7f3f 1c20 803f ebbe 7f3f 32bf 7f3f
00000160: fbc0 7f3f aa20 803f 94be 7f3f 8820 803f
00000170: 8320 803f a220 803f 7120 803f adbf 7f3f
00000180: 87c1 7f3f b520 803f 7b20 803f 3920 803f
00000190: b420 803f b9c0 7f3f b920 803f fabe 7f3f
000001a0: 8e20 803f bdbe 7f3f a5be 7f3f 1ebf 7f3f
000001b0: efbe 7f3f 14bf 7f3f d1be 7f3f 91be 7f3f
000001c0: f3be 7f3f 25c6 7f3f 33bf 7f3f e9be 7f3f
000001d0: b820 803f a2be 7f3f b020 803f 52c0 7f3f
000001e0: a9be 7f3f bc20 803f 9d20 803f 0420 803f
000001f0: a0be 7f3f 7b20 803f acbe 7f3f d2be 7f3f
00000200: 9e10 83ba 6d0e 83ba 7c11 833a 8111 83ba
00000210: 4800 833a 3311 833a e70e 833a df0f 83ba
00000220: d711 833a b811 83ba b311 833a 8110 833a
00000230: d70d 83ba 330b 833a e111 83ba b511 83ba
00000240: be11 833a f911 833a 5a11 83ba e510 83ba
00000250: 8c11 833a dc10 83ba c010 83ba 0811 83ba
00000260: 6011 83ba 8111 83ba 7711 833a e110 833a
00000270: a711 833a b511 83ba 190f 83ba e70c 833a
00000280: f80e 833a 9d11 833a 3300 83ba af0c 833a
00000290: e511 833a 9c10 833a 9b11 833a 520f 83ba
000002a0: c911 833a 1211 833a 950f 83ba 0711 833a
000002b0: 6910 83ba 250b 833a e20f 833a 6e11 833a
000002c0: 170d 833a ac0c 833a 6d10 833a 0a0f 83ba
000002d0: da11 83ba a611 83ba 9d10 83ba 800e 833a
000002e0: ab10 83ba ce11 83ba 8c11 83ba 220e 833a
000002f0: cf11 833a 0811 83ba d311 83ba 44fc 82ba
00000300: d346 81ba 35e8 81ba 8f14 823a 564f 82ba
00000310: cefe 813a aac2 82ba 614c 82ba 0d04 823a
00000320: 3eed 81ba 55f7 82ba 95f4 81ba 5fad 82ba
00000330: 0a46 82ba d3e2 7aba c4e3 82ba ddcb 823a
00000340: 65e8 82ba 3501 83ba 9d98 823a cf9c 823a
00000350: bbde 82ba 023b 80ba 092f 82ba 12d9 81ba
00000360: 8035 81ba 1ebf 823a b1d7 82ba 2ccb 7f3a
00000370: 208c 813a 6b70 823a 4cd7 793a 0b47 82ba
00000380: ae05 80ba 87e5 823a 8cdb 7f3a 2114 82ba
00000390: 06d7 823a 5fcd 81ba da9e 823a 1185 82ba
000003a0: 31f0 81ba 1585 82ba 68b6 82ba 5cf8 81ba
000003b0: f944 82ba 3b5c 77ba 2d9c 82ba e0d0 82ba
000003c0: 367f 82ba 6e49 60ba f315 82ba 153f 82ba
000003d0: c2ce 823a 9986 82ba 7bad 823a cdfc 81ba
000003e0: 39d1 82ba 53f2 823a 9353 823a 34ea a338
000003f0: 0ccf 82ba 7468 823a fb99 82ba 1f35 82ba

linear_out.weight f4 [25, 64]
0.10197576 -0.06413188 0.11471161 -0.08487631 -0.0747339 -0.03561218 0.03629682 -0.09427747
0.0077867536 0.09964426 -0.12344552 -0.010539846 0.10032371 0.08836919 0.083764866 0.050839365
-0.1124154 -0.011540638 -0.10754088 -0.10702745 -0.040940292 0.094861194 0.09806225 -0.052310847
0.03272019 -0.03660092 -0.116000414 0.08923786 -0.09329173 -0.061442837 -0.0051195086 -0.06088688
-0.030656882 -0.12137082 0.006205934 0.012920065 0.036300465 0.1214231 -0.0826997 -0.05198442
0.059932783 0.104344115 0.027172362 -0.116500735 -0.10978915 -0.10259365 -0.062371664 -0.007854222
0.022387857 0.060293574 0.07430393 -0.030586438 0.12223049 -0.02211514 0.03106259 0.04693295
0.07812334 0.023279179 -0.020945515 -0.0785939 0.06616903 0.045648064 -0.05992125 -0.10741614
0.09544827 -0.090684555 -0.077649474 -0.05126295 -0.032979727 0.010714223 -0.02267614 -0.09828951
0.025824653 0.065412164 0.006516396 0.09855313 -0.017078796 0.050750896 0.037228 -0.01047121
-0.10546477 -0.004828167 0.08667155 0.058075607 -0.09217211 -0.05191934 0.08408019 -0.062452774
0.07181511 -0.012004159 -0.107694715 -0.02280891 -0.07390164 0.10351381 0.081413716 0.001190643
-0.0016462638 -0.026970189 -0.08022156 -0.07990465 -0.06503447 -0.0768039 0.078622 0.01940441
0.058663584 0.11063316 0.079734065 0.02308651 0.096826576 -0.015395517 -0.11242513 -0.020391107
-0.009427846 -0.028394328 0.024654893 0.028906519 0.10563849 -0.11988099 -0.07900598 0.094892375
0.114724055 -0.015286557 -0.0069051385 -0.019830657 -0.04487034 0.07212791 0.10292495 0.0628913
0.039015137 0.053762943 -0.014347383 -0.06713426 -0.048983768 0.085919164 0.057788745 0.039523754
-0.060814615 0.019182052 0.11405636 0.067644246 0.045419965 0.05817995 0.019358044 0.08458871
-0.039735645 -0.0058130645 -0.08570728 -0.056588266 0.091545895 -0.03691793 0.03695332 -0.058683258
-0.033127744 -0.05745986 0.11037826 -0.10349941 -0.064006604 -0.12086878 -0.056252632 0.04693551
0.07194545 -0.11568183 0.078685366 0.094277225 0.124872416 0.0057811383 -0.10178966 -0.02831195
0.04299622 -0.10486865 0.102588475 0.037593555 0.034444477 -0.003565542 0.029048052 0.115882784
-0.06644571 -0.06936075 -0.009576494 0.079193406 0.030408068 -0.030151626 0.015210034 0.05899179
-0.055184875 -0.06180314 -0.11443103 -0.04808037 -0.122000135 0.02457384 0.08293051 0.08026096
-0.004101396 -0.02173956 0.10494589 -0.049364496 0.06180867 -0.017662022 -0.048819397 -0.10404113
0.11569269 -0.019741444 0.060717467 -0.041417092 -0.06746433 0.012951763 -0.049523056 -0.11613298
0.07165726 0.07584677 -0.054276075 0.079279214 0.019472193 0.01230983 0.0033846023 0.021271747
0.050289877 -0.071129695 0.076553285 0.011385394 -0.09887219 -0.06671801 0.07450444 -0.06954658
0.041114874 0.041971926 -0.05972457 0.025238536 0.105415106 0.0037577543 0.08056253 0.006499488
0.025704827 -0.075123094 0.100464344 0.05340779 -0.06370918 0.035897464 0.021530021 0.106079854
0.11312649 -0.02635941 0.09212386 -0.10843688 0.07017482 -0.10356118 -0.11212564 -0.009460573
0.093856744 -0.024280116 -0.08138451 -0.050167993 0.044247933 0.08101244 0.01602606 -0.104765244
00000000: abd8 d03d 9357 83bd eced ea3d a1d3 adbd
00000010: 160e 99bd 14de 11bd f9ab 143d 8c14 c1bd
00000020: 0628 ff3b 4a12 cc3d 01d1 fcbd 51af 2cbc
00000030: 8476 cd3d e8fa b43d ea8c ab3d f03c 503d
00000040: 0c3a e6bd f214 3dbc 653e dcbd 3531 dbbd
00000050: 02b1 27bd 9646 c23d dcd4 c83d e643 56bd
00000060: 9b05 063d d9ea 15bd a091 edbd 57c2 b63d
00000070: bc0f bfbd 7cab 7bbd 8dc1 a7bb 8564 79bd
00000080: 2424 fbbc 4491 f8bd 265b cb3b aeae 533c
00000090: ccaf 143d adac f83d 765e a9bd 9ded 54bd
000000a0: 147c 753d 5eb2 d53d 9398 de3c f097 eebd
000000b0: 22d9 e0bd 9f1c d2bd 6e79 7fbd ffae 00bc
000000c0: bd66 b73c 65f6 763d a92c 983d 6990 fabc
000000d0: fb53 fa3d cf2a b5bc f976 fe3c c43c 403d
000000e0: 21ff 9f3d fab3 be3c ee95 abbc d7f5 a0bd
000000f0: a183 873d 77f9 3a3d fc6f 75bd fefc dbbd
00000100: 627a c33d d3b8 b9bd b006 9fbd 19f9 51bd
00000110: c015 07bd b58a 2f3c 50c3 b9bc 034c c9bd
00000120: 398e d33c d0f6 853d 7e87 d53b 39d6 c93d
00000130: d5e8 8bbc 2ce0 4f3d 637c 183d 708f 2bbc
00000140: eafd d7bd 9a35 9ebb db80 b13d b0e0 6d3d
00000150: bbc4 bcbd 60a9 54bd 3c32 ac3d 7bce 7fbd
00000160: cd13 933d 18ad 44bc 0c8f dcbd c0d9 babc
00000170: be59 97bd 0cff d33d 3cbc a63d 590f 9c3a
00000180: 72c7 d7ba 96f0 dcbc 344b a4bd 0da5 a3bd
00000190: cb30 85bd 5d4b 9dbd 9204 a13d fff5 9e3c
000001a0: 3a49 703d a393 e23d 9d4b a33d ec1f bd3c
000001b0: 034d c63d 7b3d 7cbc 263f e6bd 400b a7bc
000001c0: 4177 1abc 399b e8bc 0ff9 c93c 5dcd ec3c
000001d0: fe58 d83d 2a84 f5bd e3cd a1bd ef56 c23d
000001e0: 72f4 ea3d 7874 7abc 8044 e2bb e773 a2bc
000001f0: f6c9 37bd ccb7 933d 51ca d23d 27cd 803d
00000200: 56ce 1f3d 8836 5c3d 4911 6bbc b07d 89bd
00000210: 34a3 48bd 63f6 af3d e4b3 6c3d a9e3 213d
00000220: bf18 79bd ae23 9d3c 6296 e93d 1189 8a3d
00000230: 490a 3a3d 194e 6e3d c394 9e3c d83c ad3d
00000240: d8c1 22bd 857b bebb 4c87 afbd 19c9 67bd
00000250: 6a7c bb3d 4137 17bd 5d5c 173d db5d 70bd
00000260: f5b0 07bd 085b 6bbd ff0d e23d 80f7 d3bd
00000270: e515 83bd 0d8a f7bd 2969 66bd 733f 403d
00000280: 2358 933d 98ea ecbd cb25 a13d 6b14 c13d
00000290: 1cbd ff3d b46f bd3b 1977 d0bd 76ee e7bc
000002a0: ce1c 303d 60c5 d6bd e819 d23d b3fb 193d
000002b0: a715 0d3d deab 69bb 2ef6 ed3c f453 ed3d
000002c0: b014 88bd 020d 8ebd bae6 1cbc 2730 a23d
000002d0: 571a f93c 8b00 f7bc 8233 793c 60a1 713d
000002e0: 8909 62bd 4a25 7dbd d15a eabd ecef 44bd
000002f0: 35db f9bd 144f c93c 79d7 a93d dc5f a43d
00000300: 0165 86bb 2917 b2bc dfed d63d 6d32 4abd
00000310: 172b 7d3d f2af 90bc d9f6 47bd 8413 d5bd
00000320: 4af0 ec3d cfb8 a1bc e1b2 783d f8a4 29bd
00000330: bd2a 8abd a233 543c b0d8 4abd 21d7 edbd
00000340: 0bc1 923d 8d55 9b3d 9750 5ebd 245d a23d
00000350: 2684 9f3c 2baf 493c 34d0 5d3b 1642 ae3c
00000360: c2fc 4d3d 72ac 91bd f8c7 9c3d ce89 3a3c
00000370: 817d cabd 74a3 88bd c995 983d 706e 8ebd
00000380: 1268 283d c1ea 2b3d c0a1 74bd 0cc1 ce3c
00000390: e0e3 d73d a844 763b f8fd a43d a8f9 d43b
000003a0: ee92 d23c 23da 99bd 40c0 cd3d 20c2 5a3d
000003b0: f579 82bd 3809 133d ba5f b03c 6540 d93d
000003c0: dcae e73d b0ef d7bc 6fab bc3d 2814 debd
000003d0: d1b7 8f3d e217 d4bd 21a2 e5bd 8500 1bbc
000003e0: f737 c03d 18e7 c6bc ecac a6bd f47c 4dbd
000003f0: 523d 353d dae9 a53d 1549 833c 298f d6bd

linear_out.bias f4 [25]
-0.06023207 0.115051456 1.3387762e-06 -0.10199628 0.08055753 -0.11850196 -0.02808449 -0.06865012
-0.01219447 0.09485435 0.110697724 0.020156773 0.06745689 0.06477097 0.036417026 0.08563281
0.10320711 0.028687324 0.03897652 0.06354 -0.118188426 0.057485208 -0.00012450479 -0.009409602
-0.0037198816
00000000: e7b5 76bd 19a0 eb3d 00b0 b335 6de3 d0bd
00000010: 59fb a43d 28b1 f2bd 7211 e6bc 6f98 8cbd
00000020: 50cb 47bc ff42 c23d 7db5 e23d d11f a53c
00000030: d726 8a3d a4a6 843d 052a 153d 4160 af3d
00000040: 405e d33d ae01 eb3c d8a5 1f3d 4221 823d
00000050: c60c f2bd 9c75 6b3d 808d 02b9 bb2a 1abc
00000060: 42c9 73bb
